…
Z"},"executionInfo":{"elapsed":454,"status":"ok","timestamp":1683949395881,"user":{"displayName":"belal Safy","userId":"09217760636500651771"},"user_tz":-180},"id":"BtOULmEmoY2D","outputId":"76652b50-0eee-40a5-fe58-5e6870955f67","trusted":true},"execution_count":5,"outputs":[{"name":"stdout","output_type":"stream","text":"Model: \"vegetables-classification\"\n\n_________________________________________________________________\n\n Layer (type)                Output Shape              Param #   \n\n=================================================================\n\n conv2d (Conv2D)             (None, 222, 222, 32)      896       \n\n                                                                 \n\n max_pooling2d (MaxPooling2D  (None, 111, 111, 32)     0         \n\n )                                                               \n\n                                                                 \n\n conv2d_1 (Conv2D)           (None, 109, 109, 64)      18496     \n\n                                                                 \n\n max_pooling2d_1 (MaxPooling  (None, 54, 54, 64)       0         \n\n 2D)                                                             \n\n                                                                 \n\n conv2d_2 (Conv2D)           (None, 52, 52, 128)       73856     \n\n                                                                 \n\n max_pooling2d_2 (MaxPooling  (None, 26, 26, 128)      0         \n\n 2D)                                                             \n\n                                                                 \n\n flatten (Flatten)           (None, 86528)             0         \n\n                                                                 \n\n dense (Dense)               (None, 128)               11075712  \n\n                                                                 \n\n dense_1 (Dense)             (None, 15)                1935      \n\n                                                                 \n\n=================================================================\n\nTotal params: 11,170,895\n\nTrainable params: 11,170,895\n\nNon-trainable params: 0\n\n_________________________________________________________________\n"}]},{"cell_type":"markdown","source":"<h1 style=\"color:#e8710a\"> Compiling The Model</h1>","met
…
